…
model.add(Dense(500))   # 500개의 뉴런을 가진 레이어
model.add(Activation('relu'))
model.add(Dropout(0.5))

model.add(Dense(50))
model.add(Activation('relu'))
model.add(Dropout(0.5))

model.add(Dense(nb_classes)) # 출력층에서 20개의 클래스로 출력
model.add(Activation('softmax'))

model.compile(loss='categorical_crossentropy', optimizer='adam') # 아담 옵티마이저

print (model.summary()) # 모델 모양 보기
'''
Model: "sequential_1"
_________________________________________________________________
Layer (type)                 Output Shape              Param #   
=================================================================
dense_1 (Dense)              (None, 1000)              10001000  
_________________________________________________________________
activation_1 (Activation)    (None, 1000)              0         
_________________________________________________________________
dropout_1 (Dropout)          (None, 1000)              0         
_________________________________________________________________
dense_2 (Dense)              (None, 500)               500500    
_________________________________________________________________
activation_2 (Activation)    (None, 500)               0         
_________________________________________________________________
dropout_2 (Dropout)          (None, 500)               0         
_________________________________________________________________
dense_3 (Dense)              (None, 50)                25050     
_________________________________________________________________
activation_3 (Activation)    (None, 50)                0         
_________________________________________________________________
dropout_3 (Dropout)          (None, 50)                0         
_________________________________________________________________
dense_4 (Dense)              (None, 20)                1020      
_________________________________________________________________
activation_4 (Activation)    (None, 20)                0         
=================================================================
Total params: 10,527,570
Trainable params: 10,527,570
Non-trainable params: 0
_________________________________________________________________
None
'''

# 모델 학습
model.fit(x_train_2, Y_train, batch_size=batch_size, epochs=nb_epochs,verbose=1)

# 모델 예측
y_train_predclass = model.predict_classes(x_train_2,batch_size=batch_size)
…
