…
model.add(Dense(hidden_dims))

# drop out
model.add(Dropout(0.5))

# 활성화함수 relu
model.add(Activation('relu'))

# 출력노드 개수 1
model.add(Dense(1))

# 활성화함수 sigmoid
model.add(Activation('sigmoid'))

# 모델 학습과정 설정하기
model.compile(loss='binary_crossentropy',optimizer='adam',metrics=['accuracy']) #loss 계산은 cross entropy, opitmizer는 adam, metrics는 평가기준

print (model.summary())
'''
Model: "sequential_1"
_________________________________________________________________
Layer (type)                 Output Shape              Param #   
=================================================================
embedding_1 (Embedding)      (None, 400, 60)           360000    
_________________________________________________________________
dropout_1 (Dropout)          (None, 400, 60)           0         
_________________________________________________________________
conv1d_1 (Conv1D)            (None, 398, 260)          47060     
_________________________________________________________________
global_max_pooling1d_1 (Glob (None, 260)               0         
_________________________________________________________________
dense_1 (Dense)              (None, 300)               78300     
_________________________________________________________________
dropout_2 (Dropout)          (None, 300)               0         
_________________________________________________________________
activation_1 (Activation)    (None, 300)               0         
_________________________________________________________________
dense_2 (Dense)              (None, 1)                 301       
_________________________________________________________________
activation_2 (Activation)    (None, 1)                 0         
=================================================================
Total params: 485,661
Trainable params: 485,661
Non-trainable params: 0
_________________________________________________________________
None
'''
model.fit(x_train, y_train,batch_size=batch_size,epochs=epochs,validation_split=0.2) #validation_split은 정확도 검증을 위해 사용할 validation set의 비율(트레이닝 데이터의 20%)
'''
Train on 20000 samples, validate on 5000 samples
…
